python train_lstm_08.py 

Model: "sequential"
_________________________________________________________________
Layer (type)                 Output Shape              Param #   
=================================================================
embedding (Embedding)        (None, 256, 64)           640064    
_________________________________________________________________
lstm (LSTM)                  (None, 256, 32)           12416     
_________________________________________________________________
lstm_1 (LSTM)                (None, 32)                8320      
_________________________________________________________________
dense (Dense)                (None, 32)                1056      
_________________________________________________________________
dense_1 (Dense)              (None, 1)                 33        
=================================================================
Total params: 661,889
Trainable params: 661,889
Non-trainable params: 0
_________________________________________________________________
2023-04-18 17:52:24

Epoch 1/12
1172/1172 [==============================] - 402s 338ms/step - loss: 0.4268 - accuracy: 0.8084
Epoch 2/12
1172/1172 [==============================] - 377s 322ms/step - loss: 0.2744 - accuracy: 0.8908
…
